2.2.0
[PhysicalDevice(name='/physical_device:GPU:0', device_type='GPU')]
Creating model
Model: "sequential"
_________________________________________________________________
Layer (type)                 Output Shape              Param #   
=================================================================
conv2d (Conv2D)              (None, 84, 79, 32)        320       
_________________________________________________________________
conv2d_1 (Conv2D)            (None, 41, 39, 64)        18496     
_________________________________________________________________
dropout (Dropout)            (None, 41, 39, 64)        0         
_________________________________________________________________
dense (Dense)                (None, 41, 39, 32)        2080      
_________________________________________________________________
flatten (Flatten)            (None, 51168)             0         
_________________________________________________________________
dense_1 (Dense)              (None, 9)                 460521    
=================================================================
Total params: 481,417
Trainable params: 481,417
Non-trainable params: 0
_________________________________________________________________
Traceback (most recent call last):
  File "MsPacmanNN.py", line 255, in <module>
    main()
  File "MsPacmanNN.py", line 233, in main
    model.fit(trainGen,epochs=5)
  File "/home/anthony/tensorflowEnv/lib64/python3.8/site-packages/tensorflow/python/keras/engine/training.py", line 66, in _method_wrapper
…
